…
s são feitas automaticamente (e.g., por um quebrador de CAPTCHAs que usa o áudio no lugar da imagem.) path= colocar uma pasta para classificar os CAPTCHAs. Por padrão é a pasta onde os originais estão. 6.3.7 Carregar modelo A função load_model() é responsável por carregar modelos pré treinados modelo &lt;- decryptr::load_model(&quot;tjmg&quot;) modelo$model #&gt; Model #&gt; ___________________________________________________________________________ #&gt; Layer (type) Output Shape Param # #&gt; =========================================================================== #&gt; conv2d_4 (Conv2D) (None, 40, 110, 4) 104 #&gt; ___________________________________________________________________________ #&gt; max_pooling2d_4 (MaxPooling2D) (None, 20, 55, 4) 0 #&gt; ___________________________________________________________________________ #&gt; conv2d_5 (Conv2D) (None, 20, 55, 16) 1616 #&gt; ___________________________________________________________________________ #&gt; max_pooling2d_5 (MaxPooling2D) (None, 10, 27, 16) 0 #&gt; ___________________________________________________________________________ #&gt; conv2d_6 (Conv2D) (None, 10, 27, 32) 12832 #&gt; ___________________________________________________________________________ #&gt; max_pooling2d_6 (MaxPooling2D) (None, 5, 13, 32) 0 #&gt; ___________________________________________________________________________ #&gt; flatten_2 (Flatten) (None, 2080) 0 #&gt; ___________________________________________________________________________ #&gt; dense_3 (Dense) (None, 16) 33296 #&gt; ___________________________________________________________________________ #&gt; dropout_2 (Dropout) (None, 16) 0 #&gt; ___________________________________________________________________________ #&gt; dense_4 (Dense) (None, 50) 850 #&gt; ___________________________________________________________________________ #&gt; reshape_2 (Reshape) (None, 5, 10) 0 #&gt; ___________________________________________________________________________ #&gt; activation_2 (Activation) (None, 5, 10) 0 #&gt; =========================================================================== #&gt; Total params: 48,698 #&gt; Trainable params: 48,698 #&gt; Non-trainable params: 0 #&gt; ___________________________________________________________________________ 6.3.8 Quebrar captcha A função decrypt quebra o captcha a partir de uma imagem e um modelo. decrypt(&#39;imgs/tjmg/captcha4bfc85b5532.jpeg&#39;, mo
…
ai alguma coisa de importante da imagem. Nosso super modelo de magia negra nada mais é do que isso: a aplicação consecutiva de convolve(), add_bias() e relu(), mas com pesos escolhidos a dedo (ou por um moedor de carne super-poderoso como o keras). Agora podemos ver nosso modelo atual da Receita Federal: m &lt;- decryptr::load_model(&quot;rfb&quot;) m$model #&gt; Model #&gt; ___________________________________________________________________________ #&gt; Layer (type) Output Shape Param # #&gt; =========================================================================== #&gt; conv2d_4 (Conv2D) (None, 50, 180, 12) 312 #&gt; ___________________________________________________________________________ #&gt; max_pooling2d_4 (MaxPooling2D) (None, 25, 90, 12) 0 #&gt; ___________________________________________________________________________ #&gt; conv2d_5 (Conv2D) (None, 25, 90, 48) 14448 #&gt; ___________________________________________________________________________ #&gt; max_pooling2d_5 (MaxPooling2D) (None, 12, 45, 48) 0 #&gt; ___________________________________________________________________________ #&gt; conv2d_6 (Conv2D) (None, 12, 45, 96) 115296 #&gt; ___________________________________________________________________________ #&gt; max_pooling2d_6 (MaxPooling2D) (None, 6, 22, 96) 0 #&gt; ___________________________________________________________________________ #&gt; flatten_2 (Flatten) (None, 12672) 0 #&gt; ___________________________________________________________________________ #&gt; dense_3 (Dense) (None, 32) 405536 #&gt; ___________________________________________________________________________ #&gt; dropout_2 (Dropout) (None, 32) 0 #&gt; ___________________________________________________________________________ #&gt; dense_4 (Dense) (None, 210) 6930 #&gt; ___________________________________________________________________________ #&gt; reshape_2 (Reshape) (None, 6, 35) 0 #&gt; ___________________________________________________________________________ #&gt; activation_2 (Activation) (None, 6, 35) 0 #&gt; =========================================================================== #&gt; Total params: 542,522 #&gt; Trainable params: 542,522 #&gt; Non-trainable params: 0 #&gt; ___________________________________________________________________________ O modelo aplica convolução 3 vezes consecutivas e faz algumas contas que não entendemos. Explico agora: conv2d_: são as convoluções. As aplicaçõe
…
